…
":{"displayName":"Shylu Mari","userId":"13683299793022101762"}},"outputId":"8d1e048a-f4fb-4374-b3b3-2eb2915e4c4d"},"execution_count":null,"outputs":[{"output_type":"stream","name":"stdout","text":["Model: \"model_1\"\n","_________________________________________________________________\n"," Layer (type)                Output Shape              Param #   \n","=================================================================\n"," inputs (InputLayer)         [(None, 150)]             0         \n","                                                                 \n"," embedding (Embedding)       (None, 150, 50)           50000     \n","                                                                 \n"," lstm (LSTM)                 (None, 64)                29440     \n","                                                                 \n"," FC1 (Dense)                 (None, 256)               16640     \n","                                                                 \n"," activation (Activation)     (None, 256)               0         \n","                                                                 \n"," dropout (Dropout)           (None, 256)               0         \n","                                                                 \n"," out_layer (Dense)           (None, 1)                 257       \n","                                                                 \n"," activation_1 (Activation)   (None, 1)                 0         \n","                                                                 \n","=================================================================\n","Total params: 96,337\n","Trainable params: 96,337\n","Non-trainable params: 0\n","_________________________________________________________________\n"]}]},{"cell_type":"markdown","source":["7.Fit The Model"],"metadata":{"id":"S23B_dNzhGmY"}},{"ce
…
